…
.cache/torch/hub/checkpoints/fasterrcnn_resnet50_fpn_v2_coco-dd69338a.pth\n100%|█████████████████████████████████████████| 167M/167M [00:01<00:00, 149MB/s]\n=============================================================================================================================\nLayer (type (var_name))                            Input Shape               Output Shape              Param #\n=============================================================================================================================\nFasterRCNN (FasterRCNN)                            [11, 3, 640, 640]         [100, 4]                  --\n├─GeneralizedRCNNTransform (transform)             [11, 3, 640, 640]         [11, 3, 640, 640]         --\n├─BackboneWithFPN (backbone)                       [11, 3, 640, 640]         [11, 256, 10, 10]         --\n│    └─IntermediateLayerGetter (body)              [11, 3, 640, 640]         [11, 2048, 20, 20]        --\n│    │    └─Conv2d (conv1)                         [11, 3, 640, 640]         [11, 64, 320, 320]        (9,408)\n│    │    └─BatchNorm2d (bn1)                      [11, 64, 320, 320]        [11, 64, 320, 320]        (128)\n│    │    └─ReLU (relu)                            [11, 64, 320, 320]        [11, 64, 320, 320]        --\n│    │    └─MaxPool2d (maxpool)                    [11, 64, 320, 320]        [11, 64, 160, 160]        --\n│    │    └─Sequential (layer1)                    [11, 64, 160, 160]        [11, 256, 160, 160]       (215,808)\n│    │    └─Sequential (layer2)                    [11, 256, 160, 160]       [11, 512, 80, 80]         1,219,584\n│    │    └─Sequential (layer3)                    [11, 512, 80, 80]         [11, 1024, 40, 40]        7,098,368\n│    │    └─Sequential (layer4)                    [11, 1024, 40, 40]        [11, 2048, 20, 20]        14,964,736\n│    └─FeaturePyramidNetwork (fpn)                 [11, 256, 160, 160]       [11, 256, 10, 10]         --\n│    │    └─ModuleList (inner_blocks)              --                        --                        (recursive)\n│    │    └─ModuleList (layer_blocks)              --                        --                        (recursive)\n│    │    └─ModuleList (inner_blocks)              --                        --                        (recursive)\n│    │    └─ModuleList (layer_blocks)             
…
                    --                        (recursive)\n│    │    └─ModuleList (inner_blocks)              --                        --                        (recursive)\n│    │    └─ModuleList (layer_blocks)              --                        --                        (recursive)\n│    │    └─ModuleList (inner_blocks)              --                        --                        (recursive)\n│    │    └─ModuleList (layer_blocks)              --                        --                        (recursive)\n│    │    └─LastLevelMaxPool (extra_blocks)        [11, 256, 160, 160]       [11, 256, 160, 160]       --\n├─RegionProposalNetwork (rpn)                      [11, 3, 640, 640]         [1000, 4]                 --\n│    └─RPNHead (head)                              [11, 256, 160, 160]       [11, 3, 160, 160]         --\n│    │    └─Sequential (conv)                      [11, 256, 160, 160]       [11, 256, 160, 160]       1,180,160\n│    │    └─Conv2d (cls_logits)                    [11, 256, 160, 160]       [11, 3, 160, 160]         771\n│    │    └─Conv2d (bbox_pred)                     [11, 256, 160, 160]       [11, 12, 160, 160]        3,084\n│    │    └─Sequential (conv)                      [11, 256, 80, 80]         [11, 256, 80, 80]         (recursive)\n│    │    └─Conv2d (cls_logits)                    [11, 256, 80, 80]         [11, 3, 80, 80]           (recursive)\n│    │    └─Conv2d (bbox_pred)                     [11, 256, 80, 80]         [11, 12, 80, 80]          (recursive)\n│    │    └─Sequential (conv)                     
…
56, 20, 20]         [11, 3, 20, 20]           (recursive)\n│    │    └─Conv2d (bbox_pred)                     [11, 256, 20, 20]         [11, 12, 20, 20]          (recursive)\n│    │    └─Sequential (conv)                      [11, 256, 10, 10]         [11, 256, 10, 10]         (recursive)\n│    │    └─Conv2d (cls_logits)                    [11, 256, 10, 10]         [11, 3, 10, 10]           (recursive)\n│    │    └─Conv2d (bbox_pred)                     [11, 256, 10, 10]         [11, 12, 10, 10]          (recursive)\n│    └─AnchorGenerator (anchor_generator)          [11, 3, 640, 640]         [102300, 4]               --\n├─RoIHeads (roi_heads)                             [11, 256, 160, 160]       [100, 4]                  --\n│    └─MultiScaleRoIAlign (box_roi_pool)           [11, 256, 160, 160]       [11000, 256, 7, 7]        --\n│    └─FastRCNNConvFCHead (box_head)               [11000, 256, 7, 7]        [11000, 1024]             --\n│    │    └─Conv2dNormActivation (0)               [11000, 256, 7, 7]        [11000, 256, 7, 7]        590,336\n│    │    └─Conv2dNormActivation (1)               [11000, 256, 7, 7]        [11000, 256, 7, 7]        590,336\n│    │    └─Conv2dNormActivation (2)               [11000, 256, 7, 7]        [11000, 256, 7, 7]        590,336\n│    │    └─Conv2dNormActivation (3)               [11000, 256, 7, 7]        [11000, 256, 7, 7]        590,336\n│    │    └─Flatten (4)                            [11000, 256, 7, 7]        [11000, 12544]            --\n│    │    └─Linear (5)                             [11000, 12544]            [11000, 1024]             12,846,080\n│    │    └─ReLU (6)                               [11000, 1024]             [11000, 1024]             --\n│    └─FastRCNNPredictor (box_predictor)           [11000, 1024]             [11000, 3]                --\n│    │    └─Linear (cls_score)                     [11000, 1024]             [11000, 3]                3,075\n│    │    └─Linear (bbox_pred)                     [11000, 1024]             [11000, 12]               12,300\n=============================================================================================================================\nTotal params: 43,261,278\nTrainable params: 43,035,934\nNon-trainable params: 225,344\nTotal mult-adds (T): 2.48\n=============================================================================================================================\nInput size (MB): 54.07\nForwar
…
